…
   "metadata": {
    "colab": {
     "base_uri": "https://localhost:8080/",
     "height": 407
    },
    "colab_type": "code",
    "id": "r2Ngfdlk6z_e",
    "outputId": "b8d88ae2-6e50-4c90-964c-851ad0e06887"
   },
   "outputs": [
    {
     "name": "stdout",
     "output_type": "stream",
     "text": [
      "Model: \"sequential_1\"\n",
      "_________________________________________________________________\n",
      "Layer (type)                 Output Shape              Param #   \n",
      "=================================================================\n",
      "dense_1 (Dense)              (None, 32)                25120     \n",
      "_________________________________________________________________\n",
      "activation_1 (Activation)    (None, 32)                0         \n",
      "_________________________________________________________________\n",
      "dense_2 (Dense)              (None, 32)                1056      \n",
      "_________________________________________________________________\n",
      "activation_2 (Activation)    (None, 32)                0         \n",
      "_________________________________________________________________\n",
      "dense_3 (Dense)              (None, 32)                1056      \n",
      "_________________________________________________________________\n",
      "activation_3 (Activation)    (None, 32)                0         \n",
      "_________________________________________________________________\n",
      "dense_4 (Dense)              (None, 10)                330       \n",
      "_________________________________________________________________\n",
      "activation_4 (Activation)    (None, 10)                0         \n",
      "=================================================================\n",
      "Total params: 27,562\n",
      "Trainable params: 27,562\n",
      "Non-trainable params: 0\n",
      "_________________________________________________________________\n"
     ]
    }
   ],
   "source": [
    "model_vanilla.summary()"
   ]
  },
  {
   "cell_type": "markdown",
   "metadata": {
    "colab_type": "text",
…
   "metadata": {
    "colab": {
     "base_uri": "https://localhost:8080/",
     "height": 375
    },
    "colab_type": "code",
    "id": "ykb5xbk99UWg",
    "outputId": "97fb441d-3de4-48b7-c027-3813b786ee68"
   },
   "outputs": [
    {
     "name": "stdout",
     "output_type": "stream",
     "text": [
      "Model: \"sequential_2\"\n",
      "_________________________________________________________________\n",
      "Layer (type)                 Output Shape              Param #   \n",
      "=================================================================\n",
      "dense_5 (Dense)              (None, 32)                25120     \n",
      "_________________________________________________________________\n",
      "dropout_1 (Dropout)          (None, 32)                0         \n",
      "_________________________________________________________________\n",
      "dense_6 (Dense)              (None, 32)                1056      \n",
      "_________________________________________________________________\n",
      "dropout_2 (Dropout)          (None, 32)                0         \n",
      "_________________________________________________________________\n",
      "dense_7 (Dense)              (None, 32)                1056      \n",
      "_________________________________________________________________\n",
      "dropout_3 (Dropout)          (None, 32)                0         \n",
      "_________________________________________________________________\n",
      "dense_8 (Dense)              (None, 10)                330       \n",
      "=================================================================\n",
      "Total params: 27,562\n",
      "Trainable params: 27,562\n",
      "Non-trainable params: 0\n",
      "_________________________________________________________________\n"
     ]
    }
   ],
   "source": [
    "model_dropout.summary()"
   ]
  },
  {
   "cell_type": "markdown",
   "metadata": {
    "colab_type": "text",
…
